data/backups/full_backup_20260114_153824/models/ppo_v20_production/model_v20.onnx (onnx, 22191 bytes, 5 tensors)

mlp_extractor.policy_net.0.weight f4 [64, 15]
0.01583892 0.24444935 -0.24787962 0.47811186 -0.058090057 0.016690038 -0.2808689 -0.41421583
-0.1181001 0.21685891 0.04835804 -0.17356686 -0.18074976 0.12677923 -0.29674608 0.30793458
0.054108597 0.08790418 -0.30810943 0.00031641565 -0.078931436 -0.20061359 0.08195423 -0.03645338
0.059995543 -0.21155985 0.022487042 0.03831368 0.4723716 0.07202586 0.49868563 -0.2954518
-0.19259822 0.3184822 0.31124213 -0.0740918 -0.13337348 0.11643359 0.07998096 -0.27652997
-0.002386028 -0.2376262 0.12091107 0.4860888 0.14420468 0.0026976932 -0.035231322 -0.005176902
0.028206313 0.2845515 0.50974053 -0.011013346 0.2002826 0.11432334 -0.014958462 -0.21323171
-0.20244735 0.03219671 0.27866277 0.081178464 -0.38564655 0.021670753 0.11072492 -0.2256122
-0.0070197545 0.23203765 0.21927334 0.07737701 -0.082201496 -0.039552856 0.24627605 0.43662694
-0.22302157 -0.15464869 0.34795326 -0.14979282 -0.061328616 0.254942 -0.38511425 0.23623055
0.1352915 0.05662257 0.0884334 0.091325566 -0.24688087 -0.03764061 0.13037126 0.14161664
0.28854778 -0.35100138 0.15775906 0.036753982 -0.24585232 -0.13313419 0.18750593 -0.018267429
0.06494787 0.33016518 -0.013334164 0.024713462 0.00014251676 0.14950578 -0.13832365 -0.37767327
-0.16995107 -0.32716304 0.30193877 0.40697315 0.5239487 0.311947 -0.19911647 -0.055508077
0.41386563 -0.6200228 -0.17434645 0.050989702 0.16596115 0.015503777 0.43588164 -0.1921753
0.0686379 -0.26531565 -0.019221947 0.41108567 0.112875775 -0.20550303 0.42746672 -0.12577473
0.11172848 0.09045415 0.12563749 -0.19976592 0.0632195 -0.16174513 0.06788465 -0.030803243
-0.044309 0.4929741 -0.14215773 0.1277984 0.12992199 -0.17727922 -0.18236122 0.010970994
0.20696776 0.18720424 -0.20517108 -0.16156381 -0.4707149 -0.15433346 -0.31879228 -0.15664822
0.2085982 -0.25600067 -0.081306785 -0.06477111 -0.19035396 0.027058417 0.011401959 0.21448444
0.23210031 -0.11222993 -0.26066855 0.001610281 -0.049171265 0.21790285 0.014653426 -0.023588974
-0.56003225 0.12804568 0.08559791 0.059937738 0.3018539 0.035819795 -0.081336856 -0.037585035
0.22012793 0.091781296 -0.2591029 0.272352 -0.33142683 -0.44939384 0.043097675 -0.41578367
0.118194476 -0.2523936 -0.36060563 -0.0013820862 -0.0953454 -0.12401156 -0.22776176 0.22133814
0.0985112 0.23317309 -0.02936601 0.021485638 -0.103889935 0.14154084 0.26124084 -0.30873254
0.23161413 0.009755389 -0.43879825 -0.06087798 -0.0042554494 0.19676338 -0.090030104 -0.49020758
-0.1245367 -0.11526878 -0.07514087 -0.026707646 -0.27265394 -0.12796581 0.26617172 -0.09688759
-0.10362927 0.073208176 0.10618459 0.2110351 -0.111234106 -0.10205966 0.1641782 -0.4282137
-0.21314085 0.06997571 0.44570962 -0.13835633 0.38137016 -0.0261234 0.24104494 0.13789655
-0.030770475 0.26854107 -0.055767603 0.27876127 -0.19961274 0.530779 0.20708166 -0.3757235
0.60145605 -0.051675286 0.24646075 -0.06308239 -0.11835834 -0.036743164 -0.16493708 0.03780714
-0.31843022 -0.109670915 -0.37898403 -0.26379606 0.022649623 -0.102911465 0.22974004 -0.15072289
00000000: 9fc0 813c ee50 7a3e 28d4 7dbe 14cb f43e
00000010: d7ef 6dbd 8cb9 883c 0cce 8fbe 1914 d4be
00000020: 77de f1bd 4310 5e3e 1513 463d 83bb 31be
00000030: 7716 39be 6ad2 013e 1aef 97be 9aa9 9d3e
00000040: faa0 5d3d 1b07 b43d 85c0 9dbe 97e4 a539
00000050: cea6 a1bd a66d 4dbe 9fd7 a73d 2450 15bd
00000060: e3bd 753d 25a3 58be bf36 b83c ceee 1c3d
00000070: b1da f13e 4b82 933d b953 ff3e 7545 97be
00000080: 7838 45be 1910 a33e 215b 9f3e 71bd 97bd
00000090: 0f93 08be bc74 ee3d 0fcd a33d 5695 8dbe
000000a0: e85e 1cbb 4854 73be 39a0 f73d a2e0 f83e
000000b0: 64aa 133e c8cb 303b b84e 10bd 00a3 a9bb
000000c0: ed10 e73c bcb0 913e 5b7e 023f 5271 34bc
000000d0: e216 4d3e 5b22 ea3d 5614 75bc 6a59 5abe
000000e0: 5c4e 4fbe b3e0 033d e3ac 8e3e e540 a63d
000000f0: 7773 c5be dd86 b13c bfc3 e23d e206 67be
00000100: f805 e6bb 479b 6d3e 3189 603e d677 9e3d
00000110: 4259 a8bd 2d02 22bd ca2f 7c3e 918d df3e
00000120: c45f 64be 3a5c 1ebe ee26 b23e 4a63 19be
00000130: b733 7bbd c287 823e b22d c5be 6ce6 713e
00000140: db89 0a3e 11ed 673d 921c b53d e608 bb3d
00000150: 57ce 7cbe 0a2d 1abd 0b80 053e f403 113e
00000160: 89bc 933e 74b6 b3be 978b 213e 588b 163d
00000170: b6c0 7bbe 5454 08be 8e01 403e 93a5 95bc
00000180: 6403 853d 690b a93e 8a77 5abc e373 ca3c
00000190: 8d70 1539 0b18 193e b7a4 0dbe 645e c1be
000001a0: a707 2ebe ea81 a7be b897 9a3e c95e d03e
000001b0: 8121 063f 84b7 9f3e 30e5 4bbe 705c 63bd
000001c0: 32e6 d33e d0b9 1ebf e087 32be 94da 503d
000001d0: b8f1 293e 8e03 7e3c e12b df3e 9ac9 44be
000001e0: 0792 8c3d 74d7 87be 5877 9dbc d279 d23e
000001f0: 6a2b e73d 636f 52be ebdc da3e 17cb 00be
00000200: e7d1 e43d 0740 b93d 1da7 003e 708f 4cbe
00000210: 3a79 813d 84a0 25be 1b07 8b3d 1557 fcbc
00000220: 5b7d 35bd 1a67 fc3e cc91 11be 95dd 023e
00000230: 450a 053e af88 35be e6bc 3abe afbf 333c
00000240: 5bef 533e 78b2 3f3e 5e18 52be fc70 25be
00000250: 8b01 f1be 9709 1ebe be38 a3be 6468 20be
00000260: c49a 553e 8512 83be 2c84 a6bd b7a6 84bd
00000270: 26ec 42be 9da9 dd3c 48cf 3a3c cfa1 5b3e
00000280: b4ab 6d3e ced8 e5bd 5976 85be 1010 d33a
00000290: cf67 49bd ed21 5f3e ec14 703c aa3d c1bc
000002a0: 465e 0fbf 681e 033e f54d af3d 4681 753d
000002b0: 988c 9a3e c7b7 123d f093 a6bd c4f2 19bd
000002c0: 3769 613e d5f7 bb3d 23a9 84be b971 8b3e
000002d0: c7b0 a9be f316 e6be 3087 303d 99e1 d4be
000002e0: f20f f23d bc39 81be 4da1 b8be 1e27 b5ba
000002f0: 7344 c3bd c6f9 fdbd 613a 69be 77a6 623e
00000300: 3dc0 c93d edc4 6e3e fd90 f0bc a602 b03c
00000310: 3fc4 d4bd 15f0 103e 5cc1 853e 3112 9ebe
00000320: 412c 6d3e 11d5 1f3c 2aaa e0be 305b 79bd
00000330: 4c71 8bbb 577c 493e b461 b8bd 7dfc fabe
00000340: 190d ffbd 0a12 ecbd 75e3 99bd fec9 dabc
00000350: 4c99 8bbe 7809 03be a947 883e 006d c6bd
00000360: 953b d4bd 2bee 953d 4e77 d93d 9619 583e
00000370: b5ce e3bd a804 d1bd 541e 283e d33e dbbe
00000380: 9841 5abe 6d4f 8f3d 0d34 e43e 48ad 0dbe
00000390: f342 c33e be00 d6bc 7cd4 763e c134 0d3e
000003a0: 5d12 fcbc 377e 893e 926c 64bd ccb9 8e3e
000003b0: 4867 4cbe 22e1 073f 370d 543e d55e c0be
000003c0: 06f9 193f 77a9 53bd 3560 7c3e 5731 81bd
000003d0: db65 f2bd 0080 16bd 44e5 28be a9db 1a3d
000003e0: 4909 a3be 259b e0bd 320a c2be 4710 87be
000003f0: b48b b93c 3fc3 d2bd f940 6b3e 1a57 1abe

mlp_extractor.policy_net.0.bias f4 [64]
0.029176043 0.045860577 -0.04838001 0.06957459 0.3259599 0.011776713 -0.05213214 -0.15671113
-0.09875443 -0.095533125 0.08634636 -0.061724775 -0.021893827 -0.07315694 0.06554334 -0.19161277
0.13476694 0.18271844 -0.03216594 -0.050976876 0.06477474 0.01985537 -0.006614808 0.09448088
-0.05536384 -0.19718829 -0.03865502 0.1394614 -0.039197896 0.18555823 0.012066073 -0.010546023
0.0667207 0.123725586 -0.09493859 0.10635675 0.057561994 0.049036592 -0.08444801 -0.03113726
-0.018102216 0.05694266 -0.09014468 -0.005720755 0.09173483 0.0633958 0.037844535 -0.09274975
0.01785375 -0.009368183 0.02406383 -0.029629027 0.08853043 -0.02794408 0.0057690074 0.09115445
-0.15662205 0.041258883 0.07833163 -0.030674638 0.024773877 -0.123037584 -0.03489463 0.15045121
00000000: 9902 ef3c 4dd8 3b3d 1e2a 46bd 1f7d 8e3d
00000010: 37e4 a63e 1df3 403c 8388 55bd e278 20be
00000020: c33f cabd dfa6 c3bd 5cd6 b03d 1ed3 7cbd
00000030: af5a b3bc 4ed3 95bd 963b 863d 2336 44be
00000040: 5800 0a3e 8b1a 3b3e 6fc0 03bd 21cd 50bd
00000050: 9ea8 843d bba7 a23c 08c1 d8bb 317f c13d
00000060: 32c5 62bd baeb 49be ba54 1ebd f8ce 0e3e
00000070: f98d 20bd fa02 3e3e c7b0 453c 3ac9 2cbc
00000080: dda4 883d d763 fd3d 2a6f c2bd 91d1 d93d
00000090: 20c6 6b3d 98da 483d 14f3 acbd 9113 ffbc
000000a0: 194b 94bc b53c 693d c69d b8bd 2c75 bbbb
000000b0: 78df bb3d a8d5 813d df02 1b3d 95f3 bdbd
000000c0: 0742 923c 027d 19bc 8221 c53c 93b8 f2bc
000000d0: 714f b53d fcea e4bc f109 bd3b 2faf ba3d
000000e0: 8861 20be 13ff 283d 556c a03d 6149 fbbc
000000f0: 96f2 ca3c 21fb fbbd aced 0ebd e20f 1a3e

mlp_extractor.policy_net.2.weight f4 [64, 64]
-0.13643907 0.042661197 0.1420782 0.070144445 -0.34372678 0.08784781 -0.11616479 0.48704243
0.13242361 -0.30225697 0.049124584 -0.3200077 0.019540405 -0.05495196 -0.18228306 -0.23363395
-0.4983514 -0.0704144 -0.067884035 0.17633788 0.22376898 -0.031801745 -0.041403946 0.23609927
0.4834634 0.05208779 0.04922419 -0.024658043 0.1578277 0.06545635 0.009404666 0.4063896
-0.17081062 -0.05896355 0.009005328 -0.2216645 -0.28647742 0.1873128 -0.08956424 0.07429826
0.1365858 -0.15682976 0.27673313 -0.33446848 -0.2017054 0.42077106 -0.34369406 -0.26890647
0.07235238 0.070270866 -0.41962042 0.03271567 -0.026977964 0.024064673 0.08029354 0.18200417
-0.20348647 -0.2665407 -0.25028464 -0.0089412825 -0.25925568 0.15648222 -0.037884943 0.026068663
-0.056926105 -0.31805673 0.04443584 -0.046989366 0.26758334 0.0020557488 -0.06806688 0.47926384
-0.16077238 0.042606212 -0.06751137 -0.27702883 0.23551989 -0.24136749 -0.21979123 0.13716261
-0.23473617 0.11210133 -0.2916519 -0.17897084 0.6561952 -0.092948556 -0.2118259 0.04774494
-0.08248552 0.1271721 0.35808718 0.44738546 -0.37845865 -0.33600846 0.18209386 0.04572603
0.12321769 0.01303981 -0.31566182 0.027071042 0.08052874 0.08233947 -0.11758073 0.23406461
0.17849006 -0.08891998 -0.13566318 0.06092637 -0.23553362 0.14341791 -0.3548522 0.21686894
-0.34537017 -0.19125381 0.11350035 -0.017689906 0.2709001 0.30167443 -0.041076954 0.32104734
0.18479367 -0.23175277 -0.15730932 -0.12690966 -0.024998061 -0.23322216 -0.04552682 0.019395465
0.1949332 0.22263661 0.061952494 0.15869045 0.028706314 0.638003 0.15586169 0.4110652
0.068786636 0.06289092 0.07708149 0.115966566 0.20692421 0.013699034 -0.09928985 -0.14507867
0.17420599 -0.09384289 -0.19720887 -0.252821 -0.14177506 -0.081967846 -0.16437264 0.15377384
-0.39606804 0.061398067 -0.12238361 0.025112217 0.26664934 -0.17511812 -0.15083131 0.7293488
0.062104527 -0.5982869 0.32702672 -0.06808635 -0.61987627 0.19348887 -0.1393274 0.2071876
0.102800064 -0.0019054167 -0.00029894346 0.3592239 -0.20044577 0.046449244 -0.369838 0.012914022
-0.27383184 -0.15750664 0.2498422 -0.21829048 -0.00039625593 0.42491707 0.52323747 0.05247961
-0.25497216 -0.2531134 -0.18258828 -0.07250075 -0.001446423 0.014644 0.3151124 0.08803249
0.099023245 0.10169155 0.11806979 0.21656978 -0.32290903 -0.41361684 0.033106577 0.3806359
0.07708149 -0.14021091 -0.118032865 0.13653259 -0.27766246 0.16317157 -0.04461738 0.26560354
0.17552084 0.32715565 0.1884519 0.17943801 -0.08035655 -0.20368484 -0.34016493 0.36929074
-0.058359537 0.3340643 0.16404986 0.13591596 0.26799798 -0.5623845 0.35087493 -0.36661866
0.14549968 0.0720768 0.041229304 -0.12017551 0.19091801 -0.46800405 0.3794909 -0.12104239
0.1034735 0.26773807 -0.08550326 -0.09816672 0.007898964 0.16587758 -0.025505356 0.23686361
0.098124884 0.00986743 0.32718024 -0.32367036 0.039709292 -0.042742714 -0.43220666 -0.36197117
0.1025756 -0.09854058 -0.50801677 -0.14337043 -0.40493718 0.3054016 0.22156851 -0.2406066
00000000: afb6 0bbe 82bd 2e3d f37c 113e e4a7 8f3d
00000010: f5fc afbe 8de9 b33d cee7 edbd a05d f93e
00000020: 0e9a 073e 6dc1 9abe dc36 493d 0dd8 a3be
00000030: 3313 a03c 4e15 61bd 69a8 3abe bd3d 6fbe
00000040: ea27 ffbe 6d35 90bd c906 8bbd eb91 343e
00000050: b223 653e 8c42 02bd 2f97 29bd 02c4 713e
00000060: 8488 f73e 025a 553d 4e9f 493d aaff c9bc
00000070: 969d 213e fb0d 863d 0716 1a3c 4c12 d03e
00000080: fbe8 2ebe c383 71bd 158b 133c 05fc 62be
00000090: 2bad 92be edce 3f3e 756d b7bd b029 983d
000000a0: 26dd 0b3e fb97 20be f7af 8d3e 743f abbe
000000b0: dc8b 4ebe 4e6f d73e abf8 afbe 1cae 89be
000000c0: 7c2d 943d 2cea 8f3d 7dd8 d6be de00 063d
000000d0: e400 ddbc 4723 c53c f170 a43d 4d5f 3a3e
000000e0: c25e 50be 0678 88be 4f25 80be 757e 12bc
000000f0: 29bd 84be e03c 203e 3e2d 1bbd f38d d53c
00000100: 592b 69bd 55d8 a2be 5b02 363d ec77 40bd
00000110: af00 893e beb9 063b a666 8bbd 1262 f53e
00000120: 84a1 24be da83 2e3d 6743 8abd b9d6 8dbe
00000130: 202c 713e 0a29 77be f410 61be 5b74 0c3e
00000140: ae5e 70be 6295 e53d 6653 95be 2244 37be
00000150: 69fc 273f d05b bebd e4e8 58be 3390 433d
00000160: 2bee a8bd 6739 023e 3457 b73e b50f e53e
00000170: 55c5 c1be 4d09 acbe d076 3a3e 384b 3b3d
00000180: 8e59 fc3d eda4 553c 6d9e a1be 17c4 dd3c
00000190: 41ec a43d 99a1 a83d 2ace f0bd a2ae 6f3e
000001a0: 19c6 363e ae1b b6bd 4aeb 0abe ee8d 793d
000001b0: ba2f 71be 25dc 123e 30af b5be e412 5e3e
000001c0: 5cd4 b0be 0ad8 43be df72 e83d 6cea 90bc
000001d0: 6bb3 8a3e 1275 9a3e 4f40 28bd 5160 a43e
000001e0: 8d3a 3d3e 9950 6dbe b215 21be 9bf4 01be
000001f0: bcc8 ccbc cad1 6ebe 557a 3abd 3de3 9e3c
00000200: 929c 473e dafa 633e e6c1 7d3d c07f 223e
00000210: 8129 eb3c 2a54 233f 359a 1f3e 2377 d23e
00000220: 02e0 8c3d f4cc 803d e6dc 9d3d e17f ed3d
00000230: f1e3 533e ea71 603c 7a58 cbbd 818f 14be
00000240: 0e63 323e b330 c0bd 1ff1 49be c171 81be
00000250: 7b2d 11be c2de a7bd 4d51 28be e476 1d3e
00000260: 6ec9 cabe 8a7c 7b3d 42a4 fabd 23b8 cd3c
00000270: 4386 883e 2a52 33be 8673 1abe 9ab6 3a3f
00000280: 5161 7e3d 5529 19bf 0c70 a73e db70 8bbd
00000290: 36b0 1ebf f221 463e d8ab 0ebe fc28 543e
000002a0: d788 d23d 2dbf f9ba 83bb 9cb9 32ec b73e
000002b0: a841 4dbe 9041 3e3d 685b bdbe 5695 533c
000002c0: b033 8cbe 6c49 21be a2d6 7f3e 8a87 5fbe
000002d0: 92c0 cfb9 bb8e d93e e4f2 053f dcf4 563d
000002e0: b68b 82be 1498 81be 6cf8 3abe 467b 94bd
000002f0: e795 bdba 63ed 6f3c 6a56 a13e 614a b43d
00000300: b3cc ca3d a943 d03d 93ce f13d 78c4 5d3e
00000310: 5554 a5be 96c5 d3be c39a 073d b5e2 c23e
00000320: e6dc 9d3d 7393 0fbe 37bb f1bd 33cf 0b3e
00000330: c629 8ebe 7316 273e b7c0 36bd 30fd 873e
00000340: bcbb 333e f280 a73e 89f9 403e 99be 373e
00000350: fa91 a4bd c292 50be 192a aebe ad13 bd3e
00000360: 690a 6fbd 7a0a ab3e b0fc 273e 8e2d 0b3e
00000370: 0837 893e 6ef8 0fbf e1a5 b33e 71b5 bbbe
00000380: defd 143e 009d 933d 0fe0 283d 941e f6bd
00000390: 0380 433e 3a9e efbe a24c c23e 13e5 f7bd
000003a0: eae9 d33d f714 893e 551c afbd a20b c9bd
000003b0: a86a 013c d0db 293e 9cf0 d0bc 608c 723e
000003c0: b3f5 c83d 00ab 213c 2b84 a73e 1fb8 a5be
000003d0: 36a6 223d fc12 2fbd 314a ddbe 4954 b9be
000003e0: 2813 d23d a5cf c9bd 630d 02bf b3cf 12be
000003f0: ed53 cfbe 995d 9c3e dbe2 623e 9461 76be

mlp_extractor.policy_net.2.bias f4 [64]
-0.028022792 -0.036755215 0.02014019 0.027165923 -0.016285267 0.0058136354 0.027116532 0.011734296
-0.023082292 -0.058616083 0.004876211 -0.070193894 0.084630184 -0.12354892 -0.028687347 0.053406242
-0.026286185 0.08362759 0.05598246 0.0313166 0.072991006 0.05445991 -0.07103126 -0.0007962126
0.0065387706 0.05400128 0.046306107 -0.032289986 0.081010394 -0.013288766 0.23018864 0.026374908
-0.0379583 0.046856027 0.08963664 0.079362616 0.043605253 -0.024546415 -0.011931188 -0.05138877
0.07042993 -0.0037112632 0.20936161 0.11162666 -0.13088246 0.0393159 -0.009688841 0.06317169
-0.1161257 -0.15644719 0.012473296 -0.08631746 -0.033767086 -0.0056037027 0.024794035 0.10168701
0.09113107 0.023287123 -0.013765943 0.036158174 0.0047685876 0.14956999 -0.072371624 -0.046631545
00000000: 0e90 e5bc a38c 16bd 0afd a43c 128b de3c
00000010: ae68 85bc 4f80 be3b 7d23 de3c 3441 403c
00000020: 1317 bdbc 6b17 70bd 9fc8 9f3b d1c1 8fbd
00000030: 9752 ad3d 3707 fdbd ba01 ebbc 81c0 5a3d
00000040: 2056 d7bc f144 ab3d dd4d 653d d645 003d
00000050: 4f7c 953d 5b11 5f3d d678 91bd ecb8 50ba
00000060: 2f43 d63b 7230 5d3d 79ab 3d3d 8142 04bd
00000070: c7e8 a53d 20b9 59bc 92b6 6b3e 3110 d83c
00000080: 2a7a 1bbd 1bec 3f3d 6a93 b73d de88 a23d
00000090: 6c9b 323d 9015 c9bc 087b 43bc 087d 52bd
000000a0: 913d 903d aa38 73bb e462 563e 859c e43d
000000b0: 0d06 06be b609 213d f2bd 1ebc 2960 813d
000000c0: 50d3 edbd b133 20be cc5c 4c3c 35c7 b0bd
000000d0: 5b4f 0abd 449f b7bb dc1c cb3c 4741 d03d
000000e0: eda2 ba3d a3c4 be3c 8d8a 61bc 981a 143d
000000f0: d041 9c3b e028 193e 9337 94bd b800 3fbd

action_net.weight f4 [1, 64]
0.0916361 -0.12966253 0.17122848 -0.2568875 -0.008663301 0.23051432 0.06770611 -0.0219096
0.06293714 0.015704308 -0.1528778 -0.18378364 0.04480795 0.13966642 0.086992234 -0.01985735
0.112562224 -0.12683117 -0.275345 -0.14980735 -0.19553357 -0.12348602 -0.20980665 0.11457601
0.030858515 0.1531623 -0.038938716 0.0064216326 -0.06810043 -0.10247416 0.07246762 0.09145936
-0.09338047 -0.10129383 0.12252442 0.12117753 0.19172555 0.13782656 0.013328629 0.21820511
0.21253513 0.099076755 -0.14037368 -0.21737795 -0.20738137 -0.048033208 0.19341306 -0.10636079
-0.22792795 0.18097681 -0.0112315975 0.099764846 -0.08730857 0.16811611 -0.02174264 -0.085759886
-0.17386113 -0.02385357 0.005185416 -0.11736492 -0.1317837 0.14614688 0.06747988 -0.018879598
00000000: b5ab bb3d 41c6 04be 8556 2f3e c286 83be
00000010: 85f0 0dbc f20b 6c3e 80a9 8a3d c37b b3bc
00000020: 30e5 803d 52a6 803c ff8b 1cbe c731 3cbe
00000030: 8a88 373d b704 0f3e fc28 b23d e2ab a2bc
00000040: 0687 e63d 08e0 01be 05fa 8cbe 1967 19be
00000050: f439 48be 3de6 fcbd 8ed7 56be d4a6 ea3d
00000060: ffca fc3c 94d6 1c3e 347e 1fbd 8f6c d23b
00000070: 3d78 8bbd f9dd d1bd e769 943d 0c4f bb3d
00000080: 433e bfbd 2473 cfbd 15ee fa3d ed2b f83d
00000090: b453 443e 6822 0d3e 5260 5a3c 2971 5f3e
000000a0: cfa2 593e c1e8 ca3d 1ebe 0fbe 5398 5ebe
000000b0: c85b 54be 78be 44bd 130e 463e b0d3 d9bd
000000c0: f265 69be fc51 393e bc04 38bc 8351 cc3d
000000d0: d6ce b2bd a126 2c3e 9f1d b2bc e1a2 afbd
000000e0: a708 32be 9068 c3bc 6cea a93b 055d f0bd
000000f0: 4ef2 06be 87a7 153e e432 8a3d 63a9 9abc
